=================================================================
Test Results
=================================================================
Embedding: 30, Dropout: 0.2, LSTM: 100, optmizer: Adam, epochs: 200, Train Tst Split: .3 => Accuracy: 72.7%
_________________________________________________________________
Layer (type)                 Output Shape              Param #
=================================================================
embedding_1 (Embedding)      (None, 47, 30)            4050
_________________________________________________________________
dropout_1 (Dropout)          (None, 47, 30)            0
_________________________________________________________________
lstm_1 (LSTM)                (None, 100)               52400
_________________________________________________________________
dropout_2 (Dropout)          (None, 100)               0
_________________________________________________________________
dense_1 (Dense)              (None, 1)                 101
=================================================================
Total params: 56,551
Trainable params: 56,551
Non-trainable params: 0

predictions  0.0  1.0
actuals
0.0           21    4
1.0            9    8
#
Recall:     0.471
Precision:  0.667
Accuracy:   0.690

Embedding: 30, Dropout: 0.2, LSTM: 100, optmizer: Adam, epochs: 200, Train Tst Split: .3 => Accuracy: 76.2%
_________________________________________________________________
Layer (type)                 Output Shape              Param #
=================================================================
embedding_1 (Embedding)      (None, 47, 30)            7020
_________________________________________________________________
dropout_1 (Dropout)          (None, 47, 30)            0
_________________________________________________________________
lstm_1 (LSTM)                (None, 100)               52400
_________________________________________________________________
dropout_2 (Dropout)          (None, 100)               0
_________________________________________________________________
dense_1 (Dense)              (None, 1)                 101
=================================================================
Total params: 59,521
Trainable params: 59,521
Non-trainable params: 0

Accuracy: 97.959184
Loss: 0.020474

predictions  0.0  1.0
actuals
0.0           22    3
1.0            7   10
#
Recall:     0.588
Precision:  0.769
Accuracy:   0.762

_________________________________________________________________
Rerun - Note lower train results in better test accuracy. Possible
…
Loss: 0.000954

predictions  -0.0   1.0
actuals
0.0            22     3
1.0             9     8
#
Recall:     0.471
Precision:  0.727
Accuracy:   0.714
#=======================
6/28/19
#=======================
Embedding: 50, Dropout: 0.2, LSTM: 100, optmizer: Adam, epochs: 200, Train Tst Split: .3 => Accuracy: 76.2%
Note: Stabalized at 76.2% at 194 epochs
Also min and max are not greater than range 0 to 1. This should be normalized. -0.28 - 1.01
Layer (type)                 Output Shape              Param #
=================================================================
embedding (Embedding)        (None, 47, 50)            11700
_________________________________________________________________
dropout (Dropout)            (None, 47, 50)            0
_________________________________________________________________
lstm (LSTM)                  (None, 100)               60400
_________________________________________________________________
dropout_1 (Dropout)          (None, 100)               0
_________________________________________________________________
dense (Dense)                (None, 1)                 101
=================================================================
Total params: 72,201
Trainable params: 72,201
Non-trainable params: 0
_________________________________________________________________
None
Train on 98 samples, validate on 42 samples
Accuracy: 100.000000
Loss: 0.000223
Min preds: -0.28002065420150757 max_preds: 1.016097068786621
predictions  0.0  1.0
actuals
0.0           22    3
…
Precision:  0.769
Accuracy:   0.762
#
==================================
Embedding: 50, Dropout: 0.2, LSTM: 100, optmizer: Adam, epochs: 200, Train Tst Split: .3 => Accuracy: 76.2%
Adding in Flattening and Shaping after Embedding Layer as suggested by documentation for Embedding.
Note the range is smaller and thus under states the correct answers and needs to be normalized
_________________________________________________________________
Layer (type)                 Output Shape              Param #
=================================================================
embedding (Embedding)        (None, 47, 50)            11700
_________________________________________________________________
dropout (Dropout)            (None, 47, 50)            0
_________________________________________________________________
flatten (Flatten)            (None, 2350)              0
_________________________________________________________________
reshape (Reshape)            (None, 1, 2350)           0
_________________________________________________________________
lstm (LSTM)                  (None, 100)               980400
_________________________________________________________________
dropout_1 (Dropout)          (None, 100)               0
_________________________________________________________________
dense (Dense)                (None, 1)                 101
=================================================================
Total params: 992,201
Trainable params: 992,201
Non-trainable params: 0
__________________________
Accuracy: 100.000000
Loss: 0.000942
Min preds: -0.03355398774147034 max_preds: 0.7395308613777161
predictions  0.0  1.0
actuals
0.0           23    2
1.0           14    3
#
Recall:     0.176
Precision:  0.600
Accuracy:   0.619
==================================
…
Accuracy: 100.000000
Loss: 0.000223
Min preds: -0.28002065420150757 max_preds: 1.016097068786621
predictions  0.0  1.0
actuals
0.0           21    4
1.0            7   10
#
Recall:     0.588
Precision:  0.714
Accuracy:   0.738
==================================


Showing results of test for best non Pretrained Result
_________________________________________________________________
_________________________________________________________________
Layer (type)                 Output Shape              Param #
=================================================================
embedding (Embedding)        (None, 48, 50)            11700
_________________________________________________________________
dropout (Dropout)            (None, 48, 50)            0
_________________________________________________________________
lstm (LSTM)                  (None, 100)               60400
_________________________________________________________________
dropout_1 (Dropout)          (None, 100)               0
_________________________________________________________________
dense (Dense)                (None, 1)                 101
=================================================================
Total params: 72,201
Trainable params: 72,201
Non-trainable params: 0
_________________________________________________________________
None
Min preds: -0.24717122316360474 max_preds: 0.9711225032806396
predictions  0.0  1.0
actuals
0.0           24    1
1.0           11    6
#
Recall:     0.353
Precision:  0.857
Accuracy:   0.714
#
…
41, 0.0, "0.0", "the magnet will mayb not stick becaus the forc of the magnet will mayb the pencil is long and the magnet cannot feel the other magnet", "Like poles repel and opposite poles attract."


7/8/19  after refactoring for pretrained embedding:
Embedding: 30, Dropout: 0.2, LSTM: 100, optmizer: Adam, epochs: 200, Train Tst Split: .3 => Accuracy: 73.8%
Flattening: False  Pretrained Embedding: False
_________________________________________________________________
Layer (type)                 Output Shape              Param #
=================================================================
embedding (Embedding)        (None, 48, 30)            8070
_________________________________________________________________
dropout (Dropout)            (None, 48, 30)            0
_________________________________________________________________
lstm (LSTM)                  (None, 100)               52400
_________________________________________________________________
dropout_1 (Dropout)          (None, 100)               0
_________________________________________________________________
dense (Dense)                (None, 1)                 101
=================================================================
Total params: 60,571
Trainable params: 60,571
Non-trainable params: 0
Min pred: -0.31534701585769653 max_pred: 0.992440938949585
predictions  0.0  1.0
actuals
0.0           23    2
1.0            9    8
#
Recall:     0.471
Precision:  0.800
Accuracy:   0.738


Embedding: ** 50 **, Dropout: 0.2, LSTM: 100, optmizer: Adam, epochs: 200, Train Tst Split: .3 => Accuracy: 64.3%
Flattening: False  Pretrained Embedding: False
Changed embedding to match the pretrained vector size for comparison. It underperforms embedding 30
_________________________________________________________________
Layer (type)                 Output Shape              Param #
=================================================================
embedding (Embedding)        (None, 48, 50)            13450
_________________________________________________________________
dropout (Dropout)            (None, 48, 50)            0
_________________________________________________________________
lstm (LSTM)                  (None, 100)               60400
_________________________________________________________________
dropout_1 (Dropout)          (None, 100)               0
_________________________________________________________________
dense (Dense)                (None, 1)                 101
=================================================================
Total params: 73,951
Trainable params: 73,951
Non-trainable params: 0
_________________________________________________________________
None
Min pred: -0.26758331060409546 max_pred: 0.9860542416572571
predictions  0.0  1.0
actuals
0.0           18    7
1.0            8    9
#
Recall:     0.529
Precision:  0.562
Accuracy:   0.643


Embedding: ** 50 **, Dropout: ** 0.3 ** , LSTM: 100, optmizer: Adam, epochs: 200, Train Tst Split: .3 => Accuracy: 73.8%
Flattening: False  Pretrained Embedding: False
Embedding matches the pretrained vector size for comparison.
Increased dropbout to .3 because the poor resutls suggest overfitting

_________________________________________________________________
Layer (type)                 Output Shape              Param #
=================================================================
embedding (Embedding)        (None, 48, 50)            13450
_________________________________________________________________
dropout (Dropout)            (None, 48, 50)            0
_________________________________________________________________
lstm (LSTM)                  (None, 100)               60400
_________________________________________________________________
dropout_1 (Dropout)          (None, 100)               0
_________________________________________________________________
dense (Dense)                (None, 1)                 101
=================================================================
Total params: 73,951
Trainable params: 73,951
Non-trainable params: 0
_________________________________________________________________
None
#
Min pred: -0.4661555886268616 max_pred: 0.9837252497673035
predictions  0.0  1.0
actuals
0.0           22    3
1.0            8    9
#
Recall:     0.529
Precision:  0.750
Accuracy:   0.738

Embedding: 50,  Dropout: ** 0.4 ** , LSTM: 100, optmizer: Adam, epochs: 200, Train Tst Split: .3 => Accuracy: 76.2%
Flattening: False  Pretrained Embedding: False
Embedding matches the pretrained vector size for comparison.
Increased dropbout to .4 to see if that imporoved more. Did!

_________________________________________________________________
Layer (type)                 Output Shape              Param #
=================================================================
embedding (Embedding)        (None, 48, 50)            13450
_________________________________________________________________
dropout (Dropout)            (None, 48, 50)            0
_________________________________________________________________
lstm (LSTM)                  (None, 100)               60400
_________________________________________________________________
dropout_1 (Dropout)          (None, 100)               0
_________________________________________________________________
dense (Dense)                (None, 1)                 101
=================================================================
Total params: 73,951
Trainable params: 73,951
Non-trainable params: 0
#
Min pred: -0.3519115447998047 max_pred: 1.0246778726577759
predictions  0.0  1.0
actuals
0.0           23    2
1.0            8    9
#
Recall:     0.529
Precision:  0.818
Accuracy:   0.762


Embedding: 50, Dropout: ** 0.5 ** , LSTM: 100, optmizer: Adam, epochs: 300, Train Tst Split: .3 => Accuracy: 71.4%
Flattening: False  Pretrained Embedding: False
Embedding matches the pretrained vector size for comparison.
Increased dropbout to .5 to see if that imporoved more. Had to incrase epochs to get it to converge. Worse results.

Layer (type)                 Output Shape              Param #
=================================================================
embedding (Embedding)        (None, 48, 50)            13450
_________________________________________________________________
dropout (Dropout)            (None, 48, 50)            0
_________________________________________________________________
lstm (LSTM)                  (None, 100)               60400
_________________________________________________________________
dropout_1 (Dropout)          (None, 100)               0
_________________________________________________________________
dense (Dense)                (None, 1)                 101
=================================================================
Total params: 73,951
Trainable params: 73,951
Non-trainable params: 0
_________________________________________________________________
None
Min pred: -0.1456346958875656 max_pred: 1.0138370990753174
predictions  0.0  1.0
actuals
0.0           21    4
1.0            8    9
#
Recall:     0.529
Precision:  0.692
Accuracy:   0.714

Embedding: 50, Dropout: 0.4, LSTM: 100, optmizer: Adam, epochs: 300, Train Tst Split: .3 => Accuracy: 59.5%
Flattening: ** True **   Pretrained Embedding: False
Embedding matches the pretrained vector size for comparison.
Try Flattening. Worse!
#
_________________________________________________________________
Layer (type)                 Output Shape              Param #
=================================================================
embedding (Embedding)        (None, 48, 50)            13450
_________________________________________________________________
dropout (Dropout)            (None, 48, 50)            0
_________________________________________________________________
flatten (Flatten)            (None, 2400)              0
_________________________________________________________________
reshape (Reshape)            (None, 1, 2400)           0
_________________________________________________________________
lstm (LSTM)                  (None, 100)               1000400
_________________________________________________________________
dropout_1 (Dropout)          (None, 100)               0
_________________________________________________________________
dense (Dense)                (None, 1)                 101
=================================================================
Total params: 1,013,951
Trainable params: 1,013,951
Non-trainable params: 0
Min pred: -0.015328772366046906 max_pred: 0.6434094905853271
predictions  0.0  1.0
actuals
0.0           16    9
1.0            8    9
#
Recall:     0.529
Precision:  0.500
Accuracy:   0.595

Embedding: 50, Dropout: 0.2, LSTM: 100, optmizer: Adam, epochs: 200, Train Tst Split: .3 => Accuracy: 35.7%
Flattening: False   Pretrained Embedding: ** True **
Try Pretrained. No convergence
Layer (type)                 Output Shape              Param #
=================================================================
embedding (Embedding)        (None, 48, 50)            13400
_________________________________________________________________
dropout (Dropout)            (None, 48, 50)            0
_________________________________________________________________
lstm (LSTM)                  (None, 100)               60400
_________________________________________________________________
dropout_1 (Dropout)          (None, 100)               0
_________________________________________________________________
dense (Dense)                (None, 1)                 101
=================================================================
Total params: 73,901
Trainable params: 60,501
Non-trainable params: 13,400
_________________________________________________________________
None
Min pred: 0.3072046935558319 max_pred: 0.3936293125152588
predictions  0.0  1.0
actuals
0.0            0   25
1.0            2   15
#
Recall:     0.882
Precision:  0.375
Accuracy:   0.357


Embedding: 50, Dropout: 0.2, LSTM: 100, ** LSTM 1: 20 **, optmizer: Adam, epochs: 200, Train Tst Split: .3 => Accuracy: 45.2%
Flattening: ** True **   Pretrained Embedding: True
Did pretrained with flattening. Got convergence after adding second LSTM layer.
Predictions are stil poor but balanced to correct and incorrect.
Suggests more training since convergence was just happening and possibly some hypertuning.
#
Layer (type)                 Output Shape              Param #
=================================================================
embedding (Embedding)        (None, 48, 50)            13400
_________________________________________________________________
dropout (Dropout)            (None, 48, 50)            0
_________________________________________________________________
flatten (Flatten)            (None, 2400)              0
_________________________________________________________________
reshape (Reshape)            (None, 1, 2400)           0
_________________________________________________________________
lstm (LSTM)                  (None, 1, 100)            1000400
_________________________________________________________________
lstm_1 (LSTM)                (None, 20)                9680
_________________________________________________________________
dropout_1 (Dropout)          (None, 20)                0
_________________________________________________________________
dense (Dense)                (None, 1)                 21
=================================================================
Total params: 1,023,501
Trainable params: 1,010,101
Non-trainable params: 13,400
#
Min pred: -0.0510781854391098 max_pred: 1.1282203197479248
predictions  0.0  1.0
actuals
0.0           11   14
1.0            9    8
#
Recall:     0.471
Precision:  0.364
Accuracy:   0.452

Embedding: 50, Dropout: 0.2, LSTM: 100, ** LSTM 1: 50 **, optmizer: Adam, epochs: ** 400 **, Train Tst Split: .3 => Accuracy: 57.1%
Flattening: ** True **   Pretrained Embedding: True
Pretrained with Flattening. Incrase second layer size and iterations.
Predictions are stil poor but getting a litt better

#
Layer (type)                 Output Shape              Param #
=================================================================
embedding (Embedding)        (None, 48, 50)            13400
_________________________________________________________________
dropout (Dropout)            (None, 48, 50)            0
_________________________________________________________________
flatten (Flatten)            (None, 2400)              0
_________________________________________________________________
reshape (Reshape)            (None, 1, 2400)           0
_________________________________________________________________
lstm (LSTM)                  (None, 1, 100)            1000400
_________________________________________________________________
lstm_1 (LSTM)                (None, 50)                30200
_________________________________________________________________
dropout_1 (Dropout)          (None, 50)                0
_________________________________________________________________
dense (Dense)                (None, 1)                 51
=================================================================
Total params: 1,044,051
Trainable params: 1,030,651
Non-trainable params: 13,400
_________________________________________________________________
#
Min pred: -0.02973666600883007 max_pred: 0.9518947601318359
predictions  0.0  1.0
actuals
0.0           18    7
1.0           11    6
#
Recall:     0.353
Precision:  0.462
Accuracy:   0.571
…
Embedding: 50, Dropout: ** 0.4 ** , LSTM: 100, LSTM 1: 50, optmizer: Adam, epochs: ** 500 **, Train Tst Split: .3 => Accuracy: 52.4%
Flattening: ** True **   Pretrained Embedding: True
Pretrained with Flattening. Incresing dropout to see if that improves predictions to the value for best non-pretrained
Predictions are stil poor but getting a litter better.
Embedding doesn't seem to be improving results just as Flattening didn't with this small dataset.

Layer (type)                 Output Shape              Param #
=================================================================
embedding (Embedding)        (None, 48, 50)            13400
_________________________________________________________________
dropout (Dropout)            (None, 48, 50)            0
_________________________________________________________________
flatten (Flatten)            (None, 2400)              0
_________________________________________________________________
reshape (Reshape)            (None, 1, 2400)           0
_________________________________________________________________
lstm (LSTM)                  (None, 1, 100)            1000400
_________________________________________________________________
lstm_1 (LSTM)                (None, 50)                30200
_________________________________________________________________
dropout_1 (Dropout)          (None, 50)                0
_________________________________________________________________
dense (Dense)                (None, 1)                 51
=================================================================
Total params: 1,044,051
Trainable params: 1,030,651
Non-trainable params: 13,400
_________________________________________________________________
Min pred: -0.04611637443304062 max_pred: 0.823085367679596
predictions  0.0  1.0
actuals
0.0           14   11
1.0            9    8
#
Recall:     0.471
Precision:  0.421
Accuracy:   0.524
…
